src/training/saved_models/lstm_model.pth (torch, 231733 bytes, 9 tensors)

lstm.weight_ih_l0 f4 [256, 26]
0.108860664 0.023186697 0.12163237 -0.011820143 0.0146507975 0.009838644 -0.32437524 -0.038474746
-0.19310549 -0.074701294 -0.05035539 0.16530466 0.0051703537 0.14647967 0.58468914 0.09774856
0.11983026 -0.01658977 0.103417136 0.0064034117 0.04475657 -0.078147784 -0.2459027 -0.01407271
0.19619678 0.06324072 -0.18311767 -0.16980052 -0.12706468 -0.19878598 0.0007962799 -0.21162497
0.29104376 0.4047189 0.20155749 0.27258256 -0.32597616 -0.42187828 -0.10706708 0.094568886
-0.26896524 -0.15445487 -0.22940864 -0.04587511 0.007725462 0.21811998 -0.10244012 -0.0045782323
-0.05764895 -0.30330035 -0.1580959 -0.2791607 0.102337256 0.062121674 -0.0056899926 0.032795697
-0.03793111 -0.12643209 -0.10329175 0.5074379 -0.07949437 0.23573543 0.6285622 0.5571099
0.2972784 0.08682814 0.28218177 0.15741868 0.008175092 -0.6478985 0.018817747 -0.11804163
0.29864472 0.38658348 0.05782542 -0.5197296 0.10857046 -0.09196513 -0.05344292 -0.021808786
-0.19838625 -0.09948111 0.12059025 0.18634197 -0.09149431 -0.07467249 -0.16232747 -0.079404816
0.634481 0.39586428 0.2180426 0.2682699 0.25565904 -0.08649742 -0.21048269 -0.06655052
-0.25360572 -0.06837156 -0.36648053 -0.23630403 -0.104771994 0.10750311 -0.05810564 -0.27996954
0.00095424365 0.11876147 -0.068067536 0.024640493 -0.38863403 0.028802628 -0.83122057 -0.3076154
-0.54818994 0.07827531 -0.02899809 -0.02301092 0.2990752 -0.4384274 0.040477455 0.15405183
0.06405265 0.06872991 0.2787551 0.00033342984 -0.10671867 -0.6113438 0.15040538 0.15732339
-0.10599616 0.09370718 -0.08753562 0.05937122 -0.051735826 -0.07772666 -0.13366081 0.13399471
0.12356763 0.21000269 -0.17057136 0.29274812 0.7722359 0.32891113 -0.5584045 0.15951313
0.15921046 -0.119663276 -0.014683992 -0.21069041 -0.14103495 -0.11172834 -0.19821613 0.14940923
-0.039202284 -0.5969433 0.14949512 -0.35578305 -0.1724522 0.025405876 -0.09281849 -0.20202707
-0.28223425 -0.4722035 0.031515643 0.40623367 -0.11242485 0.316639 0.05635824 -0.2352254
0.35446164 -0.27748886 -0.38655195 0.030743368 -0.15014423 0.06167555 0.121250264 -0.32876104
-0.1554577 0.15883632 0.05105932 -0.36226365 -0.02432373 0.027914131 0.036042117 -0.10613397
0.00026648876 -0.16196547 0.28517896 -0.14729859 0.15811485 -0.20887084 -0.23558217 0.09332024
-0.5293242 -0.55397415 0.25635558 -0.054132476 0.14266606 -0.08463517 -0.21009147 -0.35850504
0.12194384 -0.10548041 -0.11566614 -0.21940354 0.8235103 -0.29144067 -0.14384185 0.08011465
0.43532315 0.24708678 0.25966695 0.4277261 0.3458121 -0.17610256 0.08224891 -0.52965266
0.0574018 0.02880893 -0.31030357 -0.03298617 0.0040504667 0.12203441 0.69496113 0.26463056
0.29540595 -0.042230282 0.42263204 0.009678837 0.30556175 0.052842464 0.33651525 0.11494448
0.25818372 -0.012433902 0.08452391 0.06116495 0.13108069 0.08548052 -0.2435064 0.023514729
-0.07427615 0.5764631 -0.17571984 0.03886328 0.11933494 0.49992767 -0.10442967 -0.39267778
0.36008483 -0.22800101 0.02587699 0.03128049 0.13578995 0.18017751 0.20726658 0.25084588
00000000: 57f2 de3d 07f2 bd3c 641a f93d 46a9 41bc
00000010: e609 703c 4432 213c 8314 a6be b297 1dbd
00000020: 72bd 45be fefc 98bd 7441 4ebd a045 293e
00000030: 126c a93b c4fe 153e 30ae 153f 6630 c83d
00000040: 9169 f53d 45e7 87bc 5dcc d33d b6d3 d13b
00000050: aa52 373d f20b a0bd ebcd 7bbe 3991 66bc
00000060: cfe7 483e 5a84 813d 3383 3bbe 30e0 2dbe
00000070: 3e1d 02be 8d8e 4bbe 71bd 503a 37b4 58be
00000080: b003 953e 5137 cf3e 1665 4e3e f18f 8b3e
00000090: 59e6 a6be 6e00 d8be fc45 dbbd 55ad c13d
000000a0: d0b5 89be 6b29 1ebe 19ea 6abe 8ae7 3bbd
000000b0: df25 fd3b d85a 5f3e 20cc d1bd ff04 96bb
000000c0: 4e21 6cbd 2f4a 9bbe e4e3 21be 27ee 8ebe
000000d0: 3296 d13d 4c73 7e3d 1e73 babb c854 063d
000000e0: a75d 1bbd 6a77 01be a08a d3bd 73e7 013f
000000f0: f2cd a2bd a164 713e 74e9 203f c19e 0e3f
00000100: e034 983e f4d2 b13d 217a 903e 5d32 213e
00000110: d2f0 053c addc 25bf ad27 9a3c cfbf f1bd
00000120: f6e7 983e 45ee c53e 59da 6c3d 000d 05bf
00000130: 305a de3d 3758 bcbd f7e6 5abd 57a8 b2bc
00000140: c425 4bbe c1bc cbbd 05f8 f63d 6ed0 3e3e
00000150: 5e61 bbbd e4ed 98bd 2c39 26be fe9e a2bd
00000160: 596d 223f b9ae ca3e 8f46 5f3e ac5a 893e
00000170: bee5 823e 8f25 b1bd c688 57be a44b 88bd
00000180: 9cd8 81be 6306 8cbd 56a3 bbbe aff9 71be
00000190: b392 d6bd 972a dc3d 2e00 6ebd 2b58 8fbe
000001a0: 3526 7a3a 3739 f33d fe66 8bbd dcda c93c
000001b0: 0afb c6be 7df3 eb3c dfca 54bf c47f 9dbe
000001c0: 2d56 0cbf ce4e a03d 678d edbc 6681 bcbc
000001d0: 6220 993e 8e79 e0be b0cb 253d c3bf 1d3e
000001e0: 092e 833d 44c2 8c3d fdb8 8e3e 32d0 ae39
000001f0: 518f dabd 0781 1cbf de03 1a3e 6219 213e
00000200: 8414 d9bd 8de9 bf3d e045 b3bd 3d2f 733d
00000210: f2e8 53bd 282f 9fbd 61de 08be e935 093e
00000220: 0711 fd3d f20a 573e 42aa 2ebe 15e3 953e
00000230: 40b1 453f 0a67 a83e 99f3 0ebf 6957 233e
00000240: 1108 233e 0512 f5bd 2095 70bc 3abf 57be
00000250: 776b 10be d4d1 e4bd 2bf9 4abe bcfe 183e
00000260: 9392 20bd 47d1 18bf 4015 193e 3229 b6be
00000270: 4f97 30be fc1f d03c 9f17 bebd 2fe0 4ebe
00000280: 0281 90be a8c4 f1be 8c16 013d dcfd cf3e
00000290: 003f e6bd 821e a23e e6d7 663d edde 70be
000002a0: ff7b b53e 0513 8ebe 23ea c5be 84d9 fb3c
000002b0: 69bf 19be 809f 7c3d 0f52 f83d 5e53 a8be
000002c0: 4e30 1fbe fda5 223e 9423 513d 9f7a b9be
000002d0: 8f42 c7bc 2dac e43c e6a0 133d c45c d9bd
000002e0: 84b7 8b39 47da 25be fa02 923e 71d5 16be
000002f0: dce8 213e 3de2 55be 743c 71be af1e bf3d
00000300: ca81 07bf 40d1 0dbf 0a41 833e 04ba 5dbd
00000310: 0d17 123e 3455 adbd 3822 57be f98d b7be
00000320: b1bd f93d 1d06 d8bd 5fe2 ecbd 52ab 60be
00000330: 92d1 523f b637 95be 474b 13be 2613 a43d
00000340: ade2 de3e 5104 7d3e 11f3 843e eafe da3e
00000350: 490e b13e 3b54 34be 1e72 a83d 5197 07bf
00000360: 261e 6b3d b500 ec3c 1ce0 9ebe 821c 07bd
00000370: c7b9 843b 2ded f93d f9e8 313f a87d 873e
00000380: 733f 973e a9f9 2cbd 3a63 d83e fc93 1e3c
00000390: 9772 9c3e 5771 583d ba4b ac3e 0368 eb3d
000003a0: a830 843e 91b7 4bbc df1a ad3d 1988 7a3d
000003b0: 043a 063e 6910 af3d be59 79be f6a1 c03c
000003c0: 181e 98bd 1693 133f e7ef 33be 1a2f 1f3d
000003d0: e165 f43d 85f6 ff3e 39df d5bd 100d c9be
000003e0: 0a5d b83e 1979 69be fbfb d33c f91f 003d
000003f0: 850c 0b3e 7480 383e b13d 543e df6e 803e

lstm.weight_hh_l0 f4 [256, 64]
0.13899924 -0.032119077 0.59899247 0.036839936 -0.13439742 -0.14143115 0.057697985 -0.5148489
-0.013859735 -0.21964261 -0.29977444 -0.28208303 0.2656965 -0.33217174 0.47495604 0.28743044
0.059991807 -0.031999283 0.5022016 -0.14532775 -0.099766605 0.010349491 0.20057769 -0.03691293
-0.5444423 -0.06468739 -0.1611496 -0.009672372 -0.1764287 0.23384888 -0.33688277 0.25052527
-0.067319416 0.3005469 0.2538152 -0.0045552324 -0.031200469 -0.1957724 0.06565473 -0.22912005
0.23371862 0.06301423 0.09339753 -0.5280874 0.093083866 -0.24893188 -0.10587158 0.074130714
-0.038181275 -0.19800442 -0.04080844 0.23183648 0.17048815 0.20345245 -0.13515608 -0.026050312
-0.11421347 0.32661092 0.17967856 0.10049098 -0.25989234 0.15875754 -0.011181933 0.1821333
-0.16999587 -0.13910243 0.17353803 0.04762268 0.009630237 0.1814145 -0.36214644 0.4015899
0.054019764 -0.5509398 -0.05568785 -0.31721273 0.05359039 -0.48970544 0.51115644 -0.1629303
0.09304451 0.076262355 -0.12437991 0.24280348 -0.34745768 -0.069421366 -0.13144366 0.19486184
0.37017837 0.03678052 0.13843082 -0.46710777 -0.01676498 -0.15647525 0.45941785 0.27194777
-0.23379767 0.2549558 0.0094573265 0.090687364 0.06817137 0.09474583 0.16614726 -0.15196523
0.13788237 0.087003544 -0.19476204 -0.1975443 0.04742719 0.14052638 0.21549098 -0.18770617
-0.30343544 0.11142215 -0.09251899 0.002980178 0.012291713 -0.2628072 -0.111906424 0.26463056
-0.30727577 -0.105340414 0.08730884 0.23966557 -0.23490575 0.053065486 0.22901016 0.1438916
-0.07404526 -0.5589167 0.10632044 0.20770288 0.35320857 0.17971736 -0.23972136 -0.007326854
0.25833273 -0.42078272 0.13603963 -0.2669093 -0.2831458 -0.23297875 0.03030494 -0.29788822
0.16339931 -0.13014129 -0.0092582265 0.39738664 0.034621924 -0.27235633 -0.08395468 0.18835229
-0.10012459 0.25454444 -0.39619985 -0.39582187 -0.08762078 0.26422644 0.0058520916 0.30977768
-0.03799188 0.010439262 0.29349995 0.09241329 -0.16911331 -0.046969313 0.49815747 -0.15910986
-0.17491543 0.3660608 -0.31874484 0.08914269 -0.018688366 -0.28540424 0.6076779 0.10093613
0.18353681 0.1031586 0.081479475 0.20226486 0.32325527 0.07120687 0.005930722 0.08679244
-0.25241435 -0.12217296 0.12413039 0.0035586653 -0.15559319 0.1272337 -0.13492627 -0.09705648
0.27845904 -0.04607416 -5.146103e-08 -0.28949583 0.0029202548 -0.13362859 0.0050199493 0.19727166
-0.44809967 -0.1662122 -0.5279796 -0.18695526 0.1996757 0.16416585 0.2701931 0.23524854
0.15419173 -0.078700036 -0.039159752 0.16450116 0.010858196 -0.36709455 0.111896954 -0.36761224
-0.21759528 0.052603833 -0.29877314 0.13563536 -0.2160877 0.10569087 -0.461928 -0.48299643
0.4575944 0.22211124 -0.22482522 -0.05474126 -0.060555946 0.036333166 -0.018879846 -0.28819445
0.05055519 -0.053921424 0.08976994 -0.3383692 0.06836782 -0.07251092 -0.12920918 0.31052148
0.21297984 -0.50714576 -0.24393862 0.06336564 0.039893787 -0.15106615 -0.77354807 -0.43040046
0.020262206 0.39996147 -0.01803924 0.32667094 0.0161696 0.34680516 -0.18019797 0.42716986
00000000: d155 0e3e 4b8f 03bd 9257 193f 79e5 163d
00000010: 7a9f 09be 54d3 10be b954 6c3d 23cd 03bf
00000020: f113 63bc fee9 60be 097c 99be 306d 90be
00000030: 5f09 883e 6a12 aabe 702d f33e 152a 933e
00000040: f8b9 753d ae11 03bd 4990 003f ccd0 14be
00000050: 6f52 ccbd e990 293c 3d64 4d3e 0332 17bd
00000060: 9260 0bbf d37a 84bd 6704 25be de78 1ebc
00000070: baa9 34be 1576 6f3e e67b acbe d944 803e
00000080: c3de 89bd 49e1 993e 11f4 813e 0f44 95bb
00000090: 2098 ffbc 8f78 48be fd75 863d 729e 6abe
000000a0: ef53 6f3e 9b0d 813d 3447 bf3d bc30 07bf
000000b0: c1a2 be3d 00e8 7ebe 33d3 d8bd d8d1 973d
000000c0: f863 1cbd acc1 4abe c026 27bd 8b66 6d3e
000000d0: 7294 2e3e d755 503e 5b66 0abe 7767 d5bc
000000e0: c0e8 e9bd 8c39 a73e a8fd 373e 37ce cd3d
000000f0: 9c10 85be 5691 223e 6d34 37bc 2781 3a3e
00000100: 6613 2ebe de70 0ebe f4b3 313e 0010 433d
00000110: 24c8 1d3c b9c4 393e 426b b9be 319d cd3e
00000120: d443 5d3d 640a 0dbf f118 64bd b569 a2be
00000130: 9981 5b3d acba fabe 26db 023f 33d7 26be
00000140: 1f8e be3d 702f 9c3d e5ba febd 7aa1 783e
00000150: f9e5 b1be ca2c 8ebd 2b99 06be dd89 473e
00000160: 0588 bd3e 2ca7 163d cfc0 0d3e c028 efbe
00000170: b656 89bc 0c3b 20be d138 eb3e bd3c 8b3e
00000180: a868 6fbe 9189 823e e7f2 1a3c 4cba b93d
00000190: 6e9d 8b3d 1a0a c23d 8222 2a3e c69c 1bbe
000001a0: 0931 0d3e ea2e b23d b36f 47be 0e49 4abe
000001b0: 0343 423d 26e6 0f3e aba9 5c3e 0c36 40be
000001c0: e45b 9bbe 4c31 e43d 997a bdbd 174f 433b
000001d0: 2e63 493c aa8e 86be 322f e5bd a87d 873e
000001e0: 4053 9dbe b7bc d7bd face b23d e46a 753e
000001f0: 228b 70be 325b 593d a481 6a3e 5258 133e
00000200: 0ba5 97bd 2a15 0fbf 88be d93d 10b0 543e
00000210: c1d7 b43e d407 383e 8479 75be 1b16 f0bb
00000220: 3044 843e d570 d7be f94d 0b3e 56a8 88be
00000230: 7cf8 90be fb91 6ebe 1142 f83c ce84 98be
00000240: 2652 273e c243 05be d1af 17bc 4376 cb3e
00000250: b8cf 0d3d 4a72 8bbe 6ef0 abbd 6cdf 403e
00000260: 1f0e cdbd a653 823e b5da cabe 2aa9 cabe
00000270: 8672 b3bd b048 873e e7c2 bf3b 2e9b 9e3e
00000280: 609d 1bbd 7009 2b3c a045 963e 2e43 bd3d
00000290: 0a2c 2dbe e562 40bd 7f0e ff3e b2ed 22be
000002a0: 081d 33be 526c bb3e 8632 a3be 7190 b63d
000002b0: 5818 99bc 8120 92be c790 1b3f 9ab7 ce3d
000002c0: 13f1 3b3e d144 d33d b6de a63d 851e 4f3e
000002d0: b781 a53e e8d4 913d 8156 c23b 3cc0 b13d
000002e0: 743c 81be d135 fabd 1338 fe3d 7f38 693b
000002f0: d253 1fbe 8d49 023e 1d2a 0abe 8cc5 c6bd
00000300: 2f92 8e3e 42b8 3cbd 0006 5db3 cc38 94be
00000310: bf61 3f3b efd5 08be 637e a43b 9501 4a3e
00000320: 526d e5be 8833 2abe ac29 07bf 3371 3fbe
00000330: c977 4c3e 181b 283e c056 8a3e fee4 703e
00000340: 70e4 1d3e 7c2d a1bd fa65 20bd fe72 283e
00000350: 93e6 313c d1f3 bbbe 3b2a e53d ac37 bcbe
00000360: 4cd1 5ebe 1e77 573d cbf8 98be ffe3 0a3e
00000370: 1846 5dbe 7474 d83d d481 ecbe 4f4b f7be
00000380: d049 ea3e 2171 633e 9538 66be 5f38 60bd
00000390: 8309 78bd 16d2 143d e8a9 9abc 398e 93be
000003a0: f512 4f3d b6dc 5cbd 4dd9 b73d ba3e adbe
000003b0: 6d04 8c3d 9b80 94bd 694f 04be acfc 9e3e
000003c0: 6317 5a3e 4ed4 01bf 0ccb 79be d8c5 813d
000003d0: ab67 233d 16b1 1abe 3f07 46bf 735d dcbe
000003e0: edfc a53c c0c7 cc3e 07c7 93bc 6a41 a73e
000003f0: 1c76 843c 7290 b13e d185 38be 02b6 da3e

lstm.bias_ih_l0 f4 [256]
-0.16082466 0.10849275 0.25112098 -0.12493509 -0.016817486 -0.37188306 0.17553817 -0.16284202
-0.12041645 -0.1248968 0.056239862 0.08385286 0.1390803 -0.33310798 -0.05956002 0.14002919
0.009667263 -0.14464433 -0.22208963 0.09849011 -0.05617969 0.030560933 -0.038781732 -0.37234
0.111305825 -0.1787935 -0.19184002 -0.13932112 0.25726345 -0.09597391 -0.015937867 -0.05494983
0.15443882 0.07694192 -0.31344178 -0.03457438 0.24805218 0.0990767 -0.13156247 -0.1780836
-0.19167033 -0.28855103 0.15639968 -0.17631051 -0.061665427 -0.32111984 -0.2706859 0.03409045
-0.18719451 0.04371665 -0.013379222 -0.044658735 -0.09769233 -0.32518592 0.107514106 -0.17471579
-0.09365812 0.10117263 -0.014716069 -0.0576957 -0.17657468 -0.24743125 -0.20582083 -0.12289113
0.15887289 0.18677035 -0.03544312 -0.150324 -0.15694831 -0.25199097 0.18304038 -0.2132958
0.07142542 0.029719686 -0.25946844 -0.34620833 -0.37765533 -0.05987162 -0.14304568 -0.14110315
-0.3524824 0.2834646 -0.16578355 -0.14823392 -0.20826085 -0.18440893 -0.06801217 -0.22419564
-0.31030858 -0.20486012 -0.10912132 -0.021073103 -0.19980596 -0.29981282 0.08815301 -0.06113051
-0.052722402 -0.25293165 -0.34520122 -0.26453924 -0.43476805 -0.101996385 -0.23799922 0.057722494
-0.034522403 -0.1775543 0.016401751 0.15351246 -0.0944977 0.07514599 -0.18004335 -0.15416504
-0.15047838 -0.06132713 -0.2037563 0.1551044 -0.10588856 -0.48657858 0.08760614 -0.07467071
-0.25388715 -0.0057931403 -0.2338468 0.042726614 0.09099078 -0.3213513 0.14401007 -0.5780245
0.08030888 0.021407386 0.08643751 -0.09258346 0.021569604 0.088136196 -0.04745334 -0.06503624
0.14705263 -0.047602966 -0.093278036 -0.057265814 -0.02575244 -0.051299162 0.08462736 -0.1334954
-0.052055746 -0.033004664 0.15503198 0.08078748 0.004844894 0.13509315 -0.058315672 0.012560915
-0.09216212 0.04198047 0.02711914 0.015656883 0.0020958814 0.06181431 -0.013699787 0.117237985
-0.17424005 0.13228734 -0.06055855 0.11286875 0.123386145 0.008877108 0.17841867 0.056079347
0.09991682 -0.11985269 -0.030764012 -0.102025546 0.06352862 -0.15679026 -0.18739676 0.19454466
-0.11235085 0.06535784 0.16169202 0.03122832 0.06357137 -0.04701804 0.040438905 0.00545808
-0.109776005 -0.17152987 -0.2549406 0.0050351378 -0.01815749 0.1617343 -0.0842923 -0.1876317
0.11336757 0.024597466 0.3309157 -0.2889073 -0.03197784 -0.25809342 -0.10946532 0.040135384
0.1637821 -0.07197919 0.077403806 -0.25878915 0.010693587 -0.17550775 0.11822983 -0.16285264
-0.042792097 -0.035813343 -0.032446112 0.025308132 -0.003948733 0.09769172 -0.06391964 0.01599085
0.20398732 0.01818086 -0.22581539 -0.16203034 0.20370813 -0.04261515 -0.14449623 -0.14169542
-0.1344425 -0.19395085 -0.13317168 -0.17421791 0.14789608 0.14632243 -0.10121875 -0.0033684648
-0.2747324 -0.2139194 0.17784268 0.2002061 -0.14988287 -0.050254006 -0.058475897 -0.049384613
-0.058162145 0.29569024 -0.059204582 -0.1128226 0.06463671 -0.2851206 -0.07518935 -0.16581225
-0.14408652 0.15788744 -0.024635455 -0.0418406 0.02594351 -0.06948056 -0.29543105 -0.14685726
00000000: 38af 24be 7231 de3d ee92 803e f8dd ffbd
00000010: d3c4 89bc 7567 bebe 47c0 333e 0fc0 26be
00000020: e69c f6bd e5c9 ffbd c55b 663d 0cbb ab3d
00000030: 116b 0e3e 218d aabe 35f5 73bd d063 0f3e
00000040: 7163 1e3c a51d 14be 776b 63be 2fb5 c93d
00000050: ad1c 66bd ec5a fa3c 98d9 1ebd 59a3 bebe
00000060: 4ff4 e33d a515 37be b671 44be 32aa 0ebe
00000070: 09b8 833e f88d c4bd 2190 82bc 1313 61bd
00000080: 3625 1e3e ba93 9d3d 717b a0be dd9d 0dbd
00000090: 6401 7e3e bae8 ca3d 50b8 06be 8c5b 36be
000000a0: 3a45 44be f6bc 93be 3d27 203e be8a 34be
000000b0: e394 7cbd d269 a4be 5897 8abe 6da2 0b3d
000000c0: ebaf 3fbe 3b10 333d 8634 5bbc 14ec 36bd
000000d0: eb12 c8bd c57e a6be 5b30 dc3d b2e8 32be
000000e0: d4cf bfbd 9933 cf3d ab1b 71bc 5452 6cbd
000000f0: fecf 34be 9e5e 7dbe b2c2 52be 58ae fbbd
00000100: 93af 223e ba40 3f3e ce2c 11bd 89ee 19be
00000110: 0fb7 20be f604 81be f06e 3b3e 376a 5abe
00000120: 7e47 923d b376 f33c 0cd9 84be 3842 b1be
00000130: 0a5c c1be f23b 75bd 917a 12be 587d 10be
00000140: 9378 b4be 4622 913e 2ac3 29be a2ca 17be
00000150: 5542 55be b2d5 3cbe f749 8bbd 8b93 65be
00000160: c4e0 9ebe dac6 51be 007b dfbd 80a1 acbc
00000170: ef99 4cbe 1181 99be 9189 b43d fc63 7abd
00000180: 72f3 57bd 4280 81be 37be b0be b071 87be
00000190: eb99 debe 7be3 d0bd 11b6 73be 6c6e 6c3d
000001a0: 5d67 0dbd cbd0 35be f75c 863c 5f32 1d3e
000001b0: 0388 c1bd 24e6 993d 495d 38be 71dd 1dbe
000001c0: 0117 1abe 2832 7bbd 7ea5 50be b0d3 1e3e
000001d0: 1adc d8bd d420 f9be d96a b33d f5ec 98bd
000001e0: 7ffd 81be 62d4 bdbb 8975 6fbe 1a02 2f3d
000001f0: 6059 ba3d 2888 a4be 6077 133e 6af9 13bf
00000200: fb78 a43d 8b5e af3c 2606 b13d 669c bdbd
00000210: bdb2 b03c c080 b43d 6f5e 42bd b831 85bd
00000220: f794 163e 54fb 42bd 8e08 bfbd 8f8f 6abd
00000230: c8f6 d2bc 121f 52bd 1c51 ad3d 05b3 08be
00000240: 6838 55bd e62f 07bd b4c0 1e3e e873 a53d
00000250: ebc1 9e3b dc55 0a3e 6adc 6ebd 4ccc 4d3c
00000260: 7ebf bcbd b7f3 2b3d f528 de3c dd42 803c
00000270: 0e5b 093b 0031 7d3d 1275 60bc 781a f03d
00000280: fc6b 32be 5576 073e 3e0c 78bd bb27 e73d
00000290: e0b1 fc3d 4a71 113c 62b3 363e 75b3 653d
000002a0: 31a1 cc3d 5475 f5bd cf04 fcbc c5f2 d0bd
000002b0: 4b1b 823d a08d 20be f0e4 3fbe b736 473e
000002c0: 3418 e6bd 55da 853d 9892 253e 89d2 ff3c
000002d0: b531 823d fd95 40bd 44a3 253d b2d9 b23b
000002e0: 3ed2 e0bd 87a5 2fbe 9387 82be ccfd a43b
000002f0: 04bf 94bc ad9d 253e 71a1 acbd 8622 40be
00000300: 422d e83d a080 c93c c86d a93e a8eb 93be
00000310: 32fb 02bd d224 84be 5b2f e0bd 0065 243d
00000320: 7fb6 273e d369 93bd e385 9e3d 0380 84be
00000330: 2834 2f3c 4eb8 33be 7b22 f23d d8c2 26be
00000340: c446 2fbd 03b1 12bd 37e6 04bd 0053 cf3c
00000350: 6064 81bb 9912 c83d 4de8 82bd 3eff 823c
00000360: 0de2 503e 07f0 943c 263c 67be 48eb 25be
00000370: dd98 503e 398d 2ebd d2f6 13be 9b18 11be
00000380: 4bab 09be 0d9b 46be 285e 08be 2e66 32be
00000390: 1272 173e 8cd5 153e c74b cfbd 76c1 5cbb
000003a0: baa9 8cbe b00d 5bbe 641c 363e d402 4d3e
000003b0: e57a 19be 25d7 4dbd 6c84 6fbd 8547 4abd
000003c0: 6e3b 6ebd b664 973e 8180 72bd 890f e7bd
000003d0: 4060 843d 54fb 91be e0fc 99bd b0ca 29be
000003e0: 6b8b 13be 3fad 213e 4bd0 c9bc 0d61 2bbd
000003f0: 7c87 d43c d34b 8ebd bd42 97be c061 16be

lstm.bias_hh_l0 f4 [256]
0.042975657 0.09142507 0.24944985 -0.18632297 -0.01873903 -0.38313127 0.16331412 -0.08099346
-0.005048641 -0.17617963 0.1934962 0.04589125 0.14697488 -0.31648543 -0.15225211 0.20325902
-0.015540388 -0.0906602 -0.39889514 0.043651905 -0.19396377 0.14957786 -0.20974481 -0.3888294
0.07887787 -0.122586034 -0.14332858 -0.12997328 0.2025683 -0.21778277 0.01872243 -0.23336223
0.052942697 0.022604624 -0.26432204 -0.21889466 0.29909194 -0.033826705 0.05130475 0.011225239
-0.10092531 -0.23048429 0.036849365 -0.16900122 -0.1976113 -0.33559617 -0.18624605 -0.0036427723
-0.12550583 0.01806584 -0.14097565 -0.23238765 -0.2187426 -0.313942 0.11924328 0.005070845
-0.1851795 0.16303271 -0.05076802 -0.15507062 -0.20807922 -0.3624462 -0.24405001 -0.16675965
0.16444914 0.19304538 0.035289604 -0.2251889 -0.14012581 -0.24479112 0.15822187 -0.27664885
-0.018252816 0.048886523 -0.35945222 -0.1592125 -0.3127293 -0.015917178 -0.22582057 -0.13081512
-0.30647868 0.33371907 -0.09404481 -0.11915911 -0.23717633 -0.18640098 0.024956284 -0.19392261
-0.10795254 -0.15250482 -0.3113409 -0.07725466 -0.3426969 -0.26466823 0.089939125 0.11062116
0.03426396 -0.13837458 -0.2487304 -0.15525392 -0.3821121 -0.16841707 -0.19019899 -0.070968814
-0.1288421 -0.28143814 0.05524736 0.3304556 0.114505135 -0.13223812 -0.1851879 -0.08030767
-0.15929917 -0.07625424 -0.34098628 0.03905736 -0.2532428 -0.47700968 -0.05994498 0.02303923
-0.35298416 0.11082493 -0.06368679 0.025919989 0.09569418 -0.29940903 0.051029384 -0.56680197
0.020532046 -0.09184421 0.20623599 -0.1303416 0.04357298 0.10938965 -0.06437284 -0.05874926
0.08006765 -0.11240154 -0.10823821 0.111248575 0.07280323 0.015859526 0.04425171 -0.13582681
0.073885076 -0.08893212 0.24403569 0.033021227 0.029128607 -0.0067503317 -0.089075305 -0.016562704
-0.017715205 -0.09093847 -0.09375984 -0.006706076 -0.045716878 0.17546637 0.14570127 0.10407292
-0.12183073 0.1754059 -0.10188613 0.12211498 0.1677575 0.08276323 0.045426115 -0.03969814
-0.06290829 -0.17080314 0.09318266 -0.201098 0.07575493 -0.09834159 -0.14633715 0.072289795
-0.078924336 0.06591053 0.17121285 -0.01660102 -0.020618893 0.0083515225 -0.10795168 -0.11432363
-0.2154119 -0.0602788 -0.3037802 -0.05978718 0.13528484 0.086631216 -0.2694097 -0.08099568
-0.10726651 0.0035223258 0.2083818 -0.10102959 -0.075051 -0.13440052 -0.047238868 -0.12189114
0.13739571 -0.16188143 0.21874492 -0.21960643 0.06515311 -0.213725 -0.0058641983 -0.047032304
-0.07077325 0.09457559 -0.09128388 0.11726296 -0.20006329 0.13079867 -0.07694158 -0.03353963
0.23984052 0.035251047 -0.048220873 -0.020086402 0.106016874 -0.21564251 -0.23470514 -0.05598095
-0.10343946 -0.15561803 -0.20040826 -0.023712873 0.27840927 -0.056367386 -0.027570892 -0.15240882
-0.13709094 -0.15095906 0.17144005 0.11621725 -0.07545415 -0.01259966 0.0016123888 -0.14385599
-0.1738703 0.18743517 -0.06994897 -0.047434576 0.07245964 -0.10245349 0.071301185 -0.15099944
-0.13775206 0.2022174 0.03995174 -0.107228056 0.10546493 -0.032176565 -0.13702834 -0.11775283
00000000: 3e07 303d 113d bb3d c86f 7f3e 73cb 3ebe
00000010: 9882 99bc c829 c4be d13b 273e e6df a5bd
00000020: 126f a5bb 6f68 34be de23 463e 77f8 3b3d
00000030: 9580 163e 610a a2be fae7 1bbe 2223 503e
00000040: 1d9d 7ebc 0eac b9bd fc3b ccbe 57cc 323d
00000050: 709e 46be f02a 193e 58c7 56be a614 c7be
00000060: b98a a13d 630e fbbd bac4 12be b717 05be
00000070: 106e 4f3e 7202 5fbe c85f 993c 82f6 6ebe
00000080: 71da 583d 552d b93c 3855 87be ec25 60be
00000090: 9422 993e df8d 0abd ee24 523d 11ea 373c
000000a0: eeb1 cebd 1304 6cbe 5cef 163d a80e 2dbe
000000b0: 9e5a 4abe 43d3 abbe 49b7 3ebe 94bb 6ebb
000000c0: 9a84 00be d0fe 933c ec5b 10be 07f7 6dbe
000000d0: 0ffe 5fbe 01bd a0be d235 f43d 5529 a63b
000000e0: b29f 3dbe 0cf2 263e 21f2 4fbd d5ca 1ebe
000000f0: b812 55be 8c92 b9be 3fe8 79be 0bc3 2abe
00000100: 5b65 283e b0ad 453e d58b 103d eb97 66be
00000110: 247d 0fbe 86aa 7abe ea04 223e eba4 8dbe
00000120: ee86 95bc 3c3d 483d 1f0a b8be 9a08 23be
00000130: 0e1e a0be be64 82bc 823d 67be 66f4 05be
00000140: c6ea 9cbe 3add aa3e 919a c0bd b109 f4bd
00000150: 5ade 72be e6df 3ebe 1f71 cc3c a693 46be
00000160: 3916 ddbd 392a 1cbe 1368 9fbe b137 9ebd
00000170: f875 afbe 9882 87be 0132 b83d 598d e23d
00000180: 5e58 0c3d 11b2 0dbe 2fb3 7ebe e2fa 1ebe
00000190: 32a4 c3be 8675 2cbe 86c3 42be 1958 91bd
000001a0: 2fef 03be a918 90be 0e4b 623d 7a31 a93e
000001b0: ab81 ea3d 6e69 07be e6a1 3dbe 5978 a4bd
000001c0: 521f 23be 2f2b 9cbd c195 aebe 9cfa 1f3d
000001d0: 0aa9 81be 9d3a f4be de88 75bd c4bc bc3c
000001e0: 57ba b4be 2ef8 e23d 386e 82bd 2856 d43c
000001f0: 4ffb c33d 244c 99be 3004 513d ef19 11bf
00000200: d232 a83c d118 bcbd 872f 533e 4578 05be
00000210: 9579 323d ae07 e03d e8d5 83bd 10a3 70bd
00000220: 82fa a33d c732 e6bd ffab ddbd 4bd6 e33d
00000230: dc19 953d d6eb 813c 4841 353d 2f16 0bbe
00000240: 0f51 973d 0b22 b6bd 7ee4 793e 4441 073d
00000250: 1e9f ee3c e331 ddbb 1d6d b6bd 82ae 87bc
00000260: 7a1f 91bc f33d babd 2905 c0bd a5be dbbb
00000270: 9f41 3bbd 75ad 333e b732 153e 2f24 d53d
00000280: 6482 f9bd 9b9d 333e ada9 d0bd 6b17 fa3d
00000290: 9fc8 2b3e c57f a93d bc10 3a3d 849a 22bd
000002a0: 10d6 80bd 05e7 2ebe 8dd6 be3d a2ec 4dbe
000002b0: 6725 9b3d 5167 c9bd 68d9 15be ac0c 943d
000002c0: 15a3 a1bd 1afc 863d 6c52 2f3e ddfe 87bc
000002d0: f4e8 a8bc d3d4 083c c515 ddbd 8222 eabd
000002e0: f094 5cbe e7e6 76bd 1489 9bbe 67e3 74bd
000002f0: 1c88 0a3e b56b b13d 11f0 89be 10e1 a5bd
00000300: 8bae dbbd d2d6 663b 0a62 553e 9ae8 cebd
00000310: 57b4 99bd 4aa0 09be 8b7d 41bd 10a2 f9bd
00000320: 76b1 0c3e 3fc4 25be abfe 5f3e 82e0 60be
00000330: fe6e 853d bada 5abe 7628 c0bb f2a4 40bd
00000340: 91f1 90bd d9b0 c13d 0bf3 babd 9027 f03d
00000350: 64dd 4cbe 16f0 053e 8c93 9dbd da60 09bd
00000360: c198 753e 6763 103d 4083 45bd 3d8c a4bc
00000370: 601f d93d 64d1 5cbe 8b56 70be 484c 65bd
00000380: 11d8 d3bd 555a 1fbe d337 4dbe 8041 c2bc
00000390: a98b 8e3e 7de1 66bd 5adc e1bc 0f11 1cbe
000003a0: 9161 0cbe 0395 1abe fb8d 2f3e 4f03 ee3d
000003b0: b587 9abd ce6e 4ebc ca56 d33a fc4e 13be
000003c0: 0e0b 32be 01ef 3f3e 6841 8fbd c24a 42bd
000003d0: b865 943d 23d3 d1bd 5b06 923d 999f 1abe
000003e0: e00e 0dbe 1412 4f3e 70a4 233d 629a dbbd
000003f0: fffd d73d 93cb 03bd 2851 0cbe 6528 f1bd

lstm.weight_ih_l1 f4 [256, 64]
-0.2295302 0.06321139 0.03401378 0.1678539 0.030970696 0.14456545 -0.12470466 0.009107586
-0.14165504 0.05323804 0.13080375 -0.13757682 0.0422979 -0.09705623 0.019912066 -0.08355384
-0.34775272 -0.024016798 -0.093565576 -0.17099382 -0.20488231 0.38216045 -0.16349244 0.1581679
-0.103696 -0.063454874 -0.15046045 0.092801824 -0.19389157 -0.30576319 0.29073614 -0.0518209
0.13825871 -0.0032379518 -0.02064161 0.11352662 0.067964114 -0.03269725 0.18438168 0.045133956
-0.15471755 -0.033990294 -0.28034115 0.14255935 -0.08428236 -0.020133883 0.48582572 -0.30316937
0.124981456 -0.028327594 -0.17121132 -0.019444376 0.14950252 0.26441318 -0.08479136 0.13177283
0.6497023 -0.22229084 0.47251803 0.2564696 -0.20397994 -0.07584324 -0.06699178 -0.28731284
-0.27112886 0.058345813 0.053904206 0.18459743 -0.066815056 0.054528076 -0.081084386 -0.054124616
-0.08638072 0.02407972 0.13305098 -0.14405197 -0.4032055 -0.008837454 0.10079568 0.2831484
-0.001731115 -0.14211813 -0.00996058 -0.08350471 0.36029798 -0.22392288 0.05532704 0.023559708
0.47658363 -0.0058858017 0.057272974 0.08246348 -0.1681142 0.16104545 -0.040696554 -0.0013211138
-0.2235541 0.015548947 0.11927101 0.03069646 -0.42632052 0.030346867 0.063748226 -0.16324797
-0.47642013 0.25859115 0.15708941 -0.18720102 0.12632062 -0.20094432 0.029892234 -0.075306736
-0.099792674 0.16707966 0.059383992 0.23378552 -0.025888596 0.11525558 -0.22872064 -0.07284041
0.34339723 -0.0031663305 -0.10787114 0.26825368 0.14300552 -0.027792443 0.07867383 0.38739994
0.18707657 -0.05057224 -0.226178 -0.033040956 -0.0056443475 -0.07229406 -0.055782575 -0.072742835
-0.36719695 -0.120176464 -0.33772033 -0.42599392 0.09617312 0.03435673 0.08098243 0.0989208
-0.2080923 -0.14759558 -0.050953552 -0.10697761 -0.040798705 -0.0776131 -0.014666191 -0.2533177
-0.035089847 0.17174008 0.03542028 -0.11627097 -0.054925207 -0.08526552 -0.5518384 -0.054522943
0.27955914 -0.23641369 0.110404275 0.19267455 -0.2830382 0.153448 0.27287206 0.06367928
-0.307489 0.05532895 -0.017327223 -0.1602094 0.47753692 -0.39916044 0.1764652 -0.16446471
-0.14041278 -0.07691004 0.11557554 -0.049052566 -0.20770758 0.111313924 -0.10734206 0.18451686
-0.23872949 -0.12695937 -0.13833383 0.124159805 -0.024977632 -0.21046108 0.06453785 0.09497023
-0.32535312 0.33364418 -0.37127942 0.24922237 -0.06496437 0.26223356 -0.07667485 -0.07694774
0.0816258 0.09724818 -0.14096233 0.07641902 -0.25604925 -0.08293374 -0.13298397 0.21024796
-0.04960027 -0.029474722 0.20319806 0.042284757 -0.014247104 0.030914614 0.11668518 -0.16084501
-0.272314 0.26005659 0.07371669 -0.027231734 0.28067026 -0.45546532 0.13811381 -0.17529356
-0.17642252 0.30540022 -0.2682522 -0.11601546 0.3931307 -0.009294386 0.23318027 -0.11070291
0.33706796 -0.14943266 0.12255808 -0.31922743 0.14357553 -0.33376446 -0.18796144 -0.08284065
-0.04784122 0.2771436 -0.31947038 0.21529493 -0.11822702 0.045409597 -0.11411161 -0.20534189
-0.07823242 0.027690135 -0.28750467 0.1702287 -0.10364347 -0.20725217 0.0027933219 0.09557473
00000000: f709 6bbe f974 813d 0952 0b3d e5e1 2b3e
00000010: 42b6 fd3c f708 143e 2865 ffbd fc37 153c
00000020: 050e 11be 2210 5a3d 6bf1 053e f0e0 0cbe
00000030: 9040 2d3d 6bc5 c6bd a11e a33c 471e abbd
00000040: a50c b2be e0be c4bc 4f9f bfbd 0119 2fbe
00000050: abcc 51be 89aa c33e 906a 27be c4f6 213e
00000060: 925e d4bd a1f4 81bd 4e12 1abe e20e be3d
00000070: 838b 46be fe8c 9cbe 5edb 943e 2742 54bd
00000080: b193 0d3e d133 54bb 9818 a9bc a580 e83d
00000090: c530 8b3d 8ded 05bd 8dce 3c3e 62de 383d
000000a0: 476e 1ebe 6839 0bbd e088 8fbe 14fb 113e
000000b0: 3b9c acbd d0ef a4bc 26be f83e 0439 9bbe
000000c0: 47f6 ff3d 450f e8bc 0552 2fbe d049 9fbc
000000d0: 3017 193e 2a61 873e 18a7 adbd 75ef 063e
000000e0: e452 263f 36a0 63be e2ed f13e fc4f 833e
000000f0: 1ee0 50be b353 9bbd fd32 89bd ab1a 93be
00000100: 67d1 8abe 05fc 6e3d a8ca 5c3d 1c07 3d3e
00000110: 55d6 88bd d558 5f3d 920f a6bd c6b1 5dbd
00000120: 60e8 b0bd d542 c53c 843e 083e 5c82 13be
00000130: f470 cebe f8ca 10bc f76d ce3d d4f8 903e
00000140: 95e6 e2ba 6a87 11be b331 23bc 8404 abbd
00000150: fa78 b83e 0a4c 65be 9b9e 623d 4a00 c13c
00000160: c502 f43e afdd c0bb 1197 6a3d 9de2 a83d
00000170: 2126 2cbe 19e9 243e 6eb1 26bd 3929 adba
00000180: 5eeb 64be 03c1 7e3c 5c44 f43d 2477 fb3c
00000190: af46 dabe fe99 f83c 6e8e 823d 7a2a 27be
000001a0: 57ed f3be 0f66 843e 0cdc 203e a0b1 3fbe
000001b0: 315a 013e 59c4 4dbe 8fe0 f43c 6b3a 9abd
000001c0: 1a60 ccbd ee16 2b3e a13c 733d 7965 6f3e
000001d0: 5214 d4bc 1e0b ec3d be35 6abe 5a2d 95bd
000001e0: c3d1 af3e 3682 4fbb 8beb dcbd 8c58 893e
000001f0: 0a70 123e faac e3bc bf1f a13d 4959 c63e
00000200: 0091 3f3e d624 4fbd 359b 67be f455 07bd
00000210: 38f4 b8bb e80e 94bd 457c 64bd 32fa 94bd
00000220: 3d01 bcbe 141f f6bd aee9 acbe e01b dabe
00000230: 6af6 c43d a4b9 0c3d 1eda a53d fd96 ca3d
00000240: 2616 55be 4c23 17be acb4 50bd 1417 dbbd
00000250: 8b1c 27bd 9ef3 9ebd 774a 70bc dcb2 81be
00000260: 5fba 0fbd a2dc 2f3e db14 113d 791f eebd
00000270: 41f9 60bd b09f aebd 4845 0dbf 7353 5fbd
00000280: 6022 8f3e 6e16 72be a31b e23d 7a4c 453e
00000290: 62ea 90be 7921 1d3e e3b5 8b3e 486a 823d
000002a0: 336f 9dbe 9ca0 623d d2f1 8dbc ef0d 24be
000002b0: b87f f43e c25e ccbe 4bb3 343e 7069 28be
000002c0: 5ec8 0fbe 0383 9dbd deb2 ec3d 58eb 48bd
000002d0: 4cb1 54be 8ef8 e33d 27d6 dbbd fdf1 3c3e
000002e0: 8175 74be a301 02be 62a7 0dbe 7f47 fe3d
000002f0: e49d ccbc 1c83 57be 6c2c 843d c07f c23d
00000300: af94 a6be 69d3 aa3e 5618 bebe 2634 7f3e
00000310: 0a0c 85bd 7a43 863e b407 9dbd c796 9dbd
00000320: 6d2b a73d 0e2a c73d 6e58 10be 9381 9c3d
00000330: e318 83be 2ad9 a9bd f32c 08be 3e4b 573e
00000340: a729 4bbd f974 f1bc 2713 503e c832 2d3d
00000350: af6c 69bc a540 fd3c a4f8 ee3d 8eb4 24be
00000360: be6c 8bbe 2326 853e c7f8 963d 1615 dfbc
00000370: 03b4 8f3e c032 e9be b56d 0d3e 2880 33be
00000380: 1ba8 34be 6b5d 9c3e 5a58 89be 8399 edbd
00000390: 6d48 c93e 7b47 18bc cfc6 6e3e 35b8 e2bd
000003a0: 2c94 ac3e e004 19be bbff fa3d c771 a3be
000003b0: 7705 133e 2de3 aabe f778 40be 5ca8 a9bd
000003c0: 28f5 43bd c4e5 8d3e 9f91 a3be 4676 5c3e
000003d0: 0221 f2bd 6aff 393d 59b3 e9bd 2545 52be
000003e0: 5238 a0bd 6cd6 e23c d033 93be 6f50 2e3e
000003f0: 0743 d4bd ea39 54be 2a10 373b afbc c33d

lstm.weight_hh_l1 f4 [256, 64]
-0.24202916 -0.37041682 0.070665024 -0.10274661 0.30266494 0.13108943 -0.045049366 -0.04492999
-0.27752233 -0.030371923 0.18489102 0.3703528 -0.09127636 0.18510623 -0.1243941 -0.008240175
-0.015942317 -0.47351518 0.26894185 0.32952526 -0.30831057 -0.18851095 0.21069656 0.32987878
0.13519184 0.04974307 0.03985672 -0.0960433 0.29972827 -0.33885288 0.22782366 0.06848431
-0.049474213 0.04079756 0.011719416 0.08742913 -0.01202624 -0.056496445 0.29227895 0.0168772
0.16587564 0.11554246 0.0030236782 -0.03618801 0.04742925 0.09189038 -0.106555305 0.08358189
0.0675393 -0.19979161 -0.24270453 -0.2803875 -0.0762073 -0.026997121 -0.042513724 -0.34620646
0.06689476 -0.36595973 0.23102593 -0.048900187 -0.15098216 -0.24651967 0.24218152 -0.06580779
0.1076369 0.28433096 0.17573622 0.1037553 0.022216797 -0.47999707 -0.23464218 0.413893
0.0065775476 -0.42258224 0.43212253 0.2607926 0.052733082 0.23822215 -0.31093484 -0.36414272
-0.105168864 0.056625117 -0.0615637 -0.16063009 -0.03852872 0.16809145 0.08754023 -0.17104472
-0.04185226 0.19253272 0.21436681 0.26691973 -0.37588438 -0.26093405 -0.13616647 0.03412023
-0.059278067 0.00060169044 0.019153878 -0.010342464 -0.576364 -0.056916963 -0.09587299 -0.41082627
-0.16130127 -0.20593895 -0.11371655 0.17457928 -0.4227618 -0.07707005 0.41626784 -0.26417637
-0.17908002 0.106601045 -0.18886457 0.10191104 0.088560544 0.12851226 0.13534014 0.16098836
0.07814864 -0.038697496 0.17995724 -0.38451004 -0.09972548 0.2041777 -0.16480072 0.14287417
0.12749827 -0.25279656 0.078947514 -0.08965942 -0.010441429 -0.14528325 0.051188517 -0.07315956
0.061563924 0.22120577 -0.23365423 0.36339313 -0.04778811 0.07003978 0.19274254 -0.04847641
-0.013942534 0.022531921 0.12673452 0.14965622 0.06900101 0.25849363 0.093248785 -0.13108929
0.15840368 0.10460054 -0.073090255 0.18921293 0.07997352 -0.35658073 0.13715594 0.13476634
-0.24342668 0.080470555 0.35793364 -0.08659866 -0.6295927 -0.08982401 0.39389363 0.02639368
-0.20212114 0.1414224 -0.11694434 0.1027047 -0.05761908 0.23472065 0.07263732 -0.17132452
-0.015428193 0.16511902 -0.25416508 -0.007558875 0.02214638 0.018480374 0.05831676 0.19596794
-0.14942402 0.013915954 -0.078736104 -0.019993072 0.10527266 0.14632094 -0.03035921 0.32592365
0.10864008 0.121214285 0.29464373 -0.43380386 0.09069593 0.2731047 -0.047047403 0.2558706
0.25977564 -0.3156309 -0.05753252 0.2973338 0.10922586 0.045997683 -0.0019299447 -0.32384285
-0.062836096 -0.43381634 -0.28144196 0.0034878093 -0.37143284 0.32821798 0.07541612 0.12777539
0.0297652 -0.01749415 0.04250947 0.19802019 -0.25729582 0.054836284 0.021706516 -0.061186917
-0.049469978 0.0654418 -0.15028732 0.3583775 -0.22006 0.18352312 0.092316344 -0.015401693
0.27773488 -0.035325907 -0.17250462 0.041571908 0.5458637 -0.12369067 -0.12687743 0.027937068
0.003631013 -0.23285757 0.17568204 0.034644336 0.14740205 0.03509134 -0.0029203456 -0.20586737
0.31277674 0.1354255 0.021487337 0.41791543 0.015097377 -0.22829787 -0.028659262 0.027867807
00000000: 7ed6 77be 46a7 bdbe d3b8 903d d16c d2bd
00000010: e6f6 9a3e 4f3c 063e af85 38bd 8208 38bd
00000020: 6817 8ebe 8ace f8bc 1254 3d3e e29e bd3e
00000030: 1aef babd 7d8c 3d3e 55c2 febd cd01 07bc
00000040: 7699 82bc 9570 f2be bfb2 893e 89b7 a83e
00000050: e2da 9dbe 0409 41be d7c0 573e dfe5 a83e
00000060: bb6f 0a3e 64bf 4b3d cd40 233d 5ab2 c4bd
00000070: fc75 993e 207e adbe 9b4a 693e 8041 8c3d
00000080: 79a5 4abd 581b 273d cb02 403c 0b0e b33d
00000090: b509 45bc d168 67bd 96a5 953e 0e42 8a3c
000000a0: 4edb 293e 86a1 ec3d e728 463b e139 14bd
000000b0: 2c45 423d 0631 bc3d ab39 dabd fb2c ab3d
000000c0: 0b52 8a3d 2c96 4cbe 8987 78be f38e 8fbe
000000d0: 9312 9cbd 1129 ddbc df22 2ebd f941 b1be
000000e0: 1f00 893d 135f bbbe 1092 6c3e 904b 48bd
000000f0: 119b 1abe a76f 7cbe 6ffe 773e 3cc6 86bd
00000100: bc70 dc3d d493 913e 32f4 333e a97d d43d
00000110: 0000 b63c 2dc2 f5be 0a46 70be c9e9 d33e
00000120: 7888 d73b b35c d8be 2a3f dd3e 9c86 853e
00000130: a5fe 573d 82f0 733e da32 9fbe ea70 babe
00000140: c662 d7bd bdef 673d 382a 7cbd 377c 24be
00000150: 4bd0 1dbd 2a20 2c3e 4b48 b33d 5926 2fbe
00000160: 466d 2bbd 4c27 453e f982 5b3e b4a9 883e
00000170: eb73 c0be 2699 85be 396f 0bbe a7c1 0b3d
00000180: 8fcd 72bd c3ba 1d3a 98e8 9c3c 7073 29bc
00000190: 978c 13bf c321 69bd 0f59 c4bd d257 d2be
000001a0: 292c 25be a9e1 52be 39e4 e8bd e9c4 323e
000001b0: 3c74 d8be e7d6 9dbd 0f21 d53e 2042 87be
000001c0: c160 37be a651 da3d b765 41be bcb6 d03d
000001d0: 3b5f b53d b898 033e 9b96 0a3e 22da 243e
000001e0: 650c a03d 4481 1ebd b646 383e 80de c4be
000001f0: df3c ccbd f613 513e 85c1 28be 9b4d 123e
00000200: e88e 023e 8d6e 81be 3caf a13d 5c9f b7bd
00000210: 8712 2bbc 22c5 14be 0dab 513d aed4 95bd
00000220: 742a 7c3d c483 623e 0e43 6fbe aa0e ba3e
00000230: 77bd 43bd 0471 8f3d 4d5e 453e 338f 46bd
00000240: 3a6f 64bc dd94 b83c b2c6 013e 7b3f 193e
00000250: 6750 8d3d 4759 843e 38f9 be3d 453c 06be
00000260: 9334 223e cf38 d63d 58b0 95bd 09c1 413e
00000270: 28c9 a33d c091 b6be 9b72 0c3e 3000 0a3e
00000280: d844 79be bfcd a43d 1443 b73e a35a b1bd
00000290: fd2c 21bf a7f5 b7bd 6dac c93e 8f37 d83c
000002a0: d8f8 4ebe 09d1 103e 8480 efbd d756 d23d
000002b0: fc01 6cbd 9c5a 703e e0c2 943d b26f 2fbe
000002c0: 88c6 7cbc f614 293e ed21 82be 70b0 f7bb
000002d0: 536c b53c 2764 973c 8edd 6e3d d2ab 483e
000002e0: 9c02 19be beff 633c 6540 a1bd 83c8 a3bc
000002f0: 3199 d73d 28d5 153e e1b3 f8bc 77df a63e
00000300: b17e de3d 323f f83d 8bdb 963e 8a1b debe
00000310: cabe b93d 61d4 8b3e c7b4 40bd 7901 833e
00000320: 5001 853e 609a a1be 38a7 6bbd 233c 983e
00000330: cfb1 df3d 1168 3c3d 33f6 fcba bbce a5be
00000340: 36b0 80bd 2d1d debe 2919 90be bb93 643b
00000350: 722c bebe 300c a83e c473 9a3d 8dd7 023e
00000360: 26d6 f33c e44f 8fbc 691e 2e3d cec5 4a3e
00000370: 47bc 83be 039c 603d ddd1 b13c 229f 7abd
00000380: 08a1 4abd 5a06 863d ebe4 19be 417d b73e
00000390: 6957 61be 7ced 3b3e 5a10 bd3d 6257 7cbc
000003a0: 4433 8e3e e6b1 10bd 0da5 30be 4e47 2a3d
000003b0: b9bd 0b3f 8951 fdbd 28ec 01be 47dc e43c
000003c0: 4af6 6d3b 3772 6ebe fee5 333e 38e7 0d3d
000003d0: 90f0 163e f0bb 0f3d 4563 3fbb e5ce 52be
000003e0: 4624 a03e fbac 0a3e 3606 b03c 03f9 d53e
000003f0: fd5a 773c ebc6 69be d4c6 eabc 074b e43c

lstm.bias_ih_l1 f4 [256]
-0.26008588 -0.23124509 -0.3083179 -0.17524843 -0.23604672 -0.46712816 -0.109901 -0.12399794
-0.18301268 -0.24145204 0.10993472 -0.45291576 -0.23119462 -0.08674751 -0.24752654 -0.27486524
-0.13776374 -0.19784217 -0.18082806 -0.39812338 -0.013230622 -0.6067385 0.009388198 -0.30768737
-0.4439407 -0.45290726 -0.3198762 -0.43815294 -0.34395537 -0.18426286 -0.38389775 -0.12845509
-0.28201368 -0.2600321 -0.31976616 -0.18513495 -0.23809221 -0.2469471 -0.17117819 -0.31168005
-0.22154284 -0.36570114 -0.047210414 -0.33776516 -0.436669 -0.22824739 -0.3731399 -0.13469765
-0.37330714 -0.35249412 -0.05128003 -0.25863358 -0.6304311 -0.4113869 -0.02105254 -0.2836041
-0.13920769 -0.26735646 -0.5607475 -0.06744513 -0.3628681 -0.6862813 -0.38337508 -0.09153804
0.0022951947 -0.19386438 -0.3004982 -0.11356523 -0.147971 -0.33949992 -0.14539297 0.087707415
-0.18925777 -0.09362503 0.09146065 -0.15575005 -0.024839219 -0.06894015 -0.1584661 0.0011710539
0.029788757 -0.4543756 -0.06799764 -0.31694072 -0.179541 -0.36916274 0.12893282 -0.25877
-0.6578056 -0.27644375 -0.38273662 -0.1110945 -0.12452639 -0.27169043 -0.19517131 -0.13208494
-0.4456668 -0.099402554 -0.2539614 -0.27563843 -0.27925536 -0.19321097 0.07026958 -0.27960393
-0.34764555 0.13107355 -0.21129513 -0.3106201 -0.45069322 -0.42299795 -0.18742709 0.007971978
-0.22125229 -0.3776487 -0.18034725 -0.28651798 -0.58726156 -0.16399685 -0.028363822 -0.15776747
-0.21350792 -0.22154337 -0.49899524 -0.4697983 -0.4542722 -0.5191488 -0.17795995 -0.08275065
-0.00400074 0.13668473 -0.09965193 0.108519785 -0.14794087 0.0021025236 0.06338547 0.022510068
-0.15208603 0.07144784 -0.16787285 -0.24097978 -0.011287407 0.044955056 0.1328717 0.06360521
0.0774254 0.04791165 -0.066123925 -0.007432972 0.09598829 -0.038885787 -0.11298453 0.07976703
0.15462446 0.014316863 -0.038535837 -0.112984374 -0.059000183 0.15292557 -0.031613246 0.088807724
0.070695475 0.008526886 -0.033949066 0.042331815 0.010897539 0.07085166 -0.022442354 -0.11874849
-0.034115963 0.06177393 -0.009788241 0.09640044 -0.12846017 -0.114381276 -0.13711958 0.025344703
-0.09584175 -0.0099908635 0.0055252416 0.025788927 0.04686225 0.032626156 -0.019940129 0.061748147
-0.09376836 0.18695061 -0.030353548 0.03796455 0.20932427 0.19148956 -0.1959863 -0.20471403
-0.38429996 -0.2333776 -0.42291176 0.0448948 -0.31106815 -0.37809387 -0.15394574 -0.105459616
-0.36727345 -0.19512863 -0.051434014 -0.2200149 -0.05358705 -0.18711996 -0.20189549 -0.2202586
-0.10999501 -0.2114489 -0.2822471 -0.3683761 -0.09648648 -0.48505202 -0.24771109 -0.44821548
-0.25033185 -0.38760453 -0.2568527 -0.30802283 -0.3303205 -0.06322078 -0.22182356 -0.12735899
-0.28417498 -0.14438187 -0.5269527 -0.11372504 -0.14532189 -0.08962568 -0.10066893 -0.35577098
-0.3304152 -0.07758766 0.02980006 -0.24469566 -0.62022984 -0.3719269 -0.536299 -0.024901299
-0.40102366 -0.41008168 -0.283987 -0.40122426 -0.4527266 -0.3584198 0.017113987 -0.3138868
-0.07368605 -0.18783255 -0.33741596 -0.38592854 -0.19029382 -0.6776739 -0.14954527 -0.26954073
00000000: fa29 85be 83cb 6cbe d8db 9dbe 5374 33be
00000010: 3bb6 71be 6c2b efbe c713 e1bd a2f2 fdbd
00000020: ad67 3bbe 343f 77be 7425 e13d 93e4 e7be
00000030: 48be 6cbe aea8 b1bd 9977 7dbe 23bb 8cbe
00000040: f011 0dbe 2397 4abe fe2a 39be d4d6 cbbe
00000050: 40c5 58bc 3753 1bbf f5d0 193c 3389 9dbe
00000060: 324c e3be 76e3 e7be d0c6 a3be 9555 e0be
00000070: eb1a b0be 67af 3cbe 3f8e c4be bb89 03be
00000080: 1964 90be ed22 85be 64b8 a3be 0494 3dbe
00000090: 72ce 73be b3df 7cbe 5649 2fbe 8794 9fbe
000000a0: 20dc 62be 2e3d bbbe b55f 41bd 8eef acbe
000000b0: 1493 dfbe afb9 69be 310c bfbe 2eee 09be
000000c0: 1d22 bfbe 1c7a b4be 020b 52bd 9f6b 84be
000000d0: ef63 21bf 4ea1 d2be 6076 acbc 8e34 91be
000000e0: 768c 0ebe f2e2 88be 268d 0fbf ac20 8abd
000000f0: d9c9 b9be 22b0 2fbf bd49 c4be 4c78 bbbd
00000100: fa6a 163b 6284 46be e6da 99be e394 e8bd
00000110: b685 17be efd2 adbe e5e1 14be f29f b33d
00000120: cacc 41be 7bbe bfbd b94f bb3d f17c 1fbe
00000130: 9e7b cbbc 7e30 8dbd f044 22be 0c7e 993a
00000140: 8d07 f43c eba3 e8be 5942 8bbd 0e46 a2be
00000150: 99d9 37be e602 bdbe f706 043e 807d 84be
00000160: f365 28bf 098a 8dbe 0ef6 c3be 8385 e3bd
00000170: b107 ffbd 021b 8bbe fdda 47be 4641 07be
00000180: 702e e4be 9193 cbbd 3b07 82be 7b20 8dbe
00000190: 8ffa 8ebe 19d9 45be 7fe9 8f3d 3f28 8fbe
000001a0: 99fe b1be 2538 063e c05d 58be 9909 9fbe
000001b0: 43c1 e6be 3093 d8be e3ec 3fbe e69c 023c
000001c0: f68f 62be 2c5b c1be f3ac 38be 7cb2 92be
000001d0: c656 16bf caee 27be 3f5b e8bc cc8d 21be
000001e0: d2a1 5abe 44dc 62be 4e7c ffbe 6789 f0be
000001f0: 5e96 e8be f0e6 04bf 223b 36be 2c79 a9bd
00000200: a418 83bb 15f7 0b3e 5016 ccbd 9f3f de3d
00000210: d07d 17be 7eca 093b 3ed0 813d 0967 b83c
00000220: 71bc 1bbe 3f53 923d dce6 2bbe 67c3 76be
00000230: d1ee 38bc cb22 383d 850f 083e 7343 823d
00000240: 3591 9e3d 023f 443d fb6b 87bd 4a90 f3bb
00000250: 8295 c43d b446 1fbd 6f64 e7bd e65c a33d
00000260: e055 1e3e 4791 6a3c c1d7 1dbd 5a64 e7bd
00000270: 2daa 71bd 8598 1c3e e47c 01bd d3e0 b53d
00000280: cac8 903d 5ab4 0b3c 2d0e 0bbd 2064 2d3d
00000290: 978b 323c ad1a 913d 07d9 b7bc 6932 f3bd
000002a0: 2ebd 0bbd a906 7d3d dc5e 20bc 986d c53d
000002b0: 108b 03be bb40 eabd 1369 0cbe b29f cf3c
000002c0: ae48 c4bd b8b0 23bc 160d b53b 4d43 d33c
000002d0: a1f2 3f3d 01a3 053d 7b59 a3bc a0eb 7c3d
000002e0: a009 c0bd fb6f 3f3e 01a8 f8bc b780 1b3d
000002f0: 1a59 563e d715 443e a2b0 48be 8ea0 51be
00000300: f7c2 c4be 8afa 6ebe e487 d8be 9ce3 373d
00000310: 5344 9fbe 8595 c1be f4a3 1dbe 36fb d7bd
00000320: 440b bcbe cdcf 47be 79ac 52bd 964b 61be
00000330: 187e 5bbd 609c 3fbe b1bd 4ebe 788b 61be
00000340: 1045 e1bd 0f86 58be b182 90be cb9b bcbe
00000350: b49a c5bd bd58 f8be faa7 7dbe 807c e5be
00000360: 7f2b 80be 1a74 c6be 3282 83be 2bb5 9dbe
00000370: c51f a9be e579 81bd b725 63be 656a 02be
00000380: 627f 91be d7d8 13be 5fe6 06bf ace8 e8bd
00000390: 43cf 14be ab8d b7bd 832b cebd 9d27 b6be
000003a0: 2e2c a9be 47e6 9ebd 411f f43c 8091 7abe
000003b0: 62c7 1ebf 346d bebe e44a 09bf cffd cbbc
000003c0: f952 cdbe 3af6 d1be be66 91be 446d cdbe
000003d0: c8cb e7be cd82 b7be a232 8c3c c5b5 a0be
000003e0: b6e8 96bd 2d57 40be c9c1 acbe 6d98 c5be
000003f0: 62dc 42be 097c 2dbf 6522 19be 3e01 8abe

lstm.bias_hh_l1 f4 [256]
-0.26687548 -0.18157484 -0.5189979 -0.08918193 -0.17770126 -0.3329766 -0.06235273 -0.08334644
-0.10191727 -0.17846055 0.05584445 -0.37550318 -0.114330105 -0.11379709 -0.318652 -0.28957057
-0.14937048 -0.28975043 -0.2941783 -0.32374725 -0.1543556 -0.56559235 -0.009514545 -0.40795714
-0.27138904 -0.47467214 -0.1835948 -0.35696775 -0.25582156 -0.25957572 -0.3957151 -0.3487598
-0.29324362 -0.12138365 -0.24822308 -0.30914614 -0.18506718 -0.15513273 -0.09815083 -0.31263116
-0.28989923 -0.2108266 -0.08634536 -0.22252609 -0.48883283 -0.33179238 -0.46266118 -0.06147336
-0.37396926 -0.33615097 -0.1235314 -0.4867755 -0.54968786 -0.28447965 -0.033090897 -0.22066404
-0.21784851 -0.18215013 -0.48563945 -0.21647038 -0.23225322 -0.67016035 -0.42431462 -0.17264293
-0.19396965 -0.42131448 -0.35939696 -0.21638833 -0.23495865 -0.13565157 0.037107967 0.050367754
-0.16272363 -0.21532007 0.29128507 -0.23016278 -0.08082055 -0.12781185 -0.14152019 0.048490576
-0.00026990855 -0.5092259 -0.072793655 -0.3423329 -0.0031276622 -0.41843283 -0.02747654 -0.24793066
-0.557637 -0.23043151 -0.22250444 -0.1674482 0.019880215 -0.1544858 -0.2396156 -0.13682058
-0.3313971 -0.22773899 -0.30882406 -0.23451519 -0.16137737 -0.1579207 -0.05246894 -0.3327472
-0.31786132 0.002381164 -0.051421307 -0.3228996 -0.5268327 -0.3636098 -0.14444491 -0.05734424
-0.10787457 -0.47185755 -0.17927669 -0.22523302 -0.45556626 -0.21473888 0.12390784 -0.3666326
-0.13965113 -0.25507006 -0.49045512 -0.47907168 -0.3995456 -0.47939318 -0.022952124 -0.23054273
0.12430313 0.18887222 -0.1546077 0.086780615 -0.0709394 -0.12255041 0.06023281 -0.04016932
-0.026043 0.0061778706 -0.019200388 -0.11765628 -0.0965901 0.06939238 0.04787116 0.080908
0.057865802 0.1291653 -0.015416437 -0.098958425 -0.013459058 -0.21369864 -0.06581163 -0.025451412
0.050647445 -0.023180658 0.061432924 -0.08555115 0.0051528467 0.12015339 -0.041946042 -0.0236921
0.022314642 0.07153655 -0.047033045 0.026801508 -0.03700596 -0.11721306 -0.17590843 0.00974767
-0.052182633 -0.013258858 0.05842401 -0.067951284 -0.05967544 0.091800846 -0.045526735 -0.078430235
0.012484399 -0.18724029 0.10658741 -0.06404907 -0.040262282 0.13905168 0.024577944 0.0807361
0.006064125 0.009181721 -0.036213454 0.015597525 0.060865026 0.052389223 -0.036609363 0.031663656
-0.2852873 -0.43639496 -0.49198148 -0.082795694 -0.17787834 -0.30963492 -0.15942888 0.03681614
-0.358791 -0.32776612 0.0548046 -0.28083432 -0.04380129 -0.27781534 -0.39327022 -0.19130245
-0.08206709 -0.2165274 -0.3139985 -0.29875436 -0.16412918 -0.5268151 -0.19846213 -0.25433585
-0.41124177 -0.26647314 -0.27998993 -0.27306768 -0.22364381 -0.037801567 -0.2588566 -0.14197092
-0.23020764 -0.24946499 -0.39954036 -0.19372098 -0.31963563 -0.20989102 0.07253814 -0.34391326
-0.12243998 -0.2523418 -0.15328245 -0.28603405 -0.4552239 -0.25993517 -0.44044814 -0.09591643
-0.3733821 -0.3480531 -0.19837238 -0.43467456 -0.4543422 -0.32560065 -0.19773306 -0.31011322
-0.19779606 -0.27040726 -0.47733817 -0.29470468 -0.32291213 -0.78206784 -0.18396574 -0.2445389
00000000: e7a3 88be c1ee 39be 0cdd 04bf 04a5 b6bd
00000010: 52f7 35be e97b aabe 9465 7fbd 8ab1 aabd
00000020: 00ba d0bd 5dbe 36be 26bd 643d f441 c0be
00000030: e725 eabd 730e e9bd 5b26 a3be 9842 94be
00000040: 93f4 18be 2b5a 94be 8a9e 96be 33c2 a5be
00000050: 650f 1ebe a9ca 10bf e5e2 1bbc c2df d0be
00000060: 81f3 8abe 3a08 f3be 4600 3cbe 7ac4 b6be
00000070: 0bfb 82be 1ce7 84be 2b9b cabe a590 b2be
00000080: 0724 96be fe97 f8bd 312e 7ebe 6748 9ebe
00000090: 4082 3dbe 1ddb 1ebe 4d03 c9bd 3111 a0be
000000a0: ac6d 94be eee2 57be d6d5 b0bd e1dd 63be
000000b0: 4c48 fabe b1e0 a9be ede1 ecbe 7dcb 7bbd
000000c0: e678 bfbe fb1b acbe 08fe fcbd a33a f9be
000000d0: 58b8 0cbf 51a7 91be 528a 07bd c1f5 61be
000000e0: ae13 5fbe 9085 3abe bca5 f8be 69aa 5dbe
000000f0: cad3 6dbe a18f 2bbf c43f d9be 4fc9 30be
00000100: fb9f 46be 88b6 d7be e102 b8be e794 5dbe
00000110: 0099 70be 3fe8 0abe 86fe 173d 6b4e 4e3d
00000120: 06a1 26be dd7c 5cbe 5123 953e cbaf 6bbe
00000130: 3f85 a5bd 1ce1 02be abea 10be 0e9e 463d
00000140: 8382 8db9 a15c 02bf d714 95bd 4246 afbe
00000150: 77f9 4cbb d43c d6be 7b16 e1bc 89e1 7dbe
00000160: 4cc1 0ebf 3df6 6bbe 34d8 63be 8a77 2bbe
00000170: d5db a23c 8731 1ebe cb5d 75be b21a 0cbe
00000180: e1ac a9be 6934 69be 301e 9ebe c024 70be
00000190: 1c40 25be f7b5 21be ace9 56bd d75d aabe
000001a0: b8be a2be 4e0d 1c3b 269f 52bd 1953 a5be
000001b0: 82de 06bf 102b babe 5ee9 13be cbe1 6abd
000001c0: 58ed dcbd 5097 f1be 4f94 37be 7ca3 66be
000001d0: fb3f e9be 82e4 5bbe 65c3 fd3d 45b7 bbbe
000001e0: b500 0fbe 8b98 82be ef1c fbbe e248 f5be
000001f0: 3e91 ccbe 0673 f5be 1806 bcbc 6513 6cbe
00000200: a492 fe3d b867 413e 7b51 1ebe 09ba b13d
00000210: ad48 91bd b6fb fabd aeb6 763d 9688 24bd
00000220: 2158 d5bc bc6f ca3b 224a 9dbc c7f5 f0bd
00000230: 08d1 c5bd 981d 8e3d 8d14 443d 18b3 a53d
00000240: b104 6d3d e943 043e 3995 7cbc b7aa cabd
00000250: 6183 5cbc d1d3 5abe 3fc8 86bd 7b7f d0bc
00000260: b273 4f3d 5de5 bdbc 17a1 7b3d 7135 afbd
00000270: 36d9 a83b fb12 f63d 9dcf 2bbd ef15 c2bc
00000280: 32cd b63c c181 923d b9a5 40bd d68e db3c
00000290: 9093 17bd 670d f0bd 5721 34be b1b4 1f3c
000002a0: 75bd 55bd ae3b 59bc 044e 6f3d 0b2a 8bbd
000002b0: 3c6e 74bd 1502 bc3d 3e7a 3abd 08a0 a0bd
000002c0: 5d8b 4c3c ebbb 3fbe 804a da3d 292c 83bd
000002d0: 10ea 24bd 9063 0e3e af57 c93c f858 a53d
000002e0: 91b5 c63b ee6e 163c 8f54 14bd c38c 7f3c
000002f0: 9b4d 793d 1596 563d b3f3 15bd c0b1 013d
00000300: 2d11 92be 296f dfbe ffe4 fbbe ca90 a9bd
00000310: bd25 36be 7888 9ebe 5341 23be 85cc 163d
00000320: 74b3 b7be f6d0 a7be ca7a 603d 84c9 8fbe
00000330: fb68 33bd d03d 8ebe b75a c9be cae4 43be
00000340: ca12 a8bd 5cb9 5dbe 69c4 a0be 55f6 98be
00000350: 7b11 28be 5bdd 06bf a839 4bbe 4f38 82be
00000360: 488e d2be 2b6f 88be d75a 8fbe 87cf 8bbe
00000370: e202 65be d1d5 1abd da88 84be d360 11be
00000380: 8dbb 6bbe c073 7fbe 8e90 ccbe cb5e 46be
00000390: 48a7 a3be aced 56be e08e 943d 6615 b0be
000003a0: d0c1 fabd f232 81be 13f6 1cbe 0e73 92be
000003b0: 1b13 e9be 3916 85be 6b82 e1be d56f c4bd
000003c0: f02b bfbe 0434 b2be 2122 4bbe aa8d debe
000003d0: 8a9f e8be 21b5 a6be 897a 4abe 29c7 9ebe
000003e0: 0d8b 4abe d272 8abe ab65 f4be 88e3 96be
000003f0: bd54 a5be 9935 48bf 8461 3cbe 6868 7abe
